Attack/cifar_model.pt (torch_old, 896289 bytes, 40 tensors)

conv1.weight f4 [32, 3, 5, 5]
0	0xbd416488	-0.047215015
1	0xbed14a0f	-0.40876815
2	0xbe9ed868	-0.3102448
3	0xbe07e0cd	-0.13269348
4	0x3ccce065	0.025009343
5	0xbec3d521	-0.38248542
6	0xbebd57d8	-0.36981082
7	0x3e7b2b72	0.24528292
8	0x3d21b967	0.039483454
9	0x3de6e73b	0.112745725
10	0xbf242760	-0.6412258
11	0xbdad2f40	-0.08456278
12	0x3f1bc4d2	0.608472
13	0x3e78ea9d	0.24308248
14	0x3e50089e	0.20315787
15	0xbe90c61d	-0.28276148
16	0x3d752463	0.059849154
17	0x3ef7dc84	0.48410428
18	0x3eab722b	0.3348554
19	0x3e650747	0.22366057
20	0x3e20ca25	0.15702112
21	0x3e0402e1	0.12891723
22	0x3e4a09ad	0.19730254
23	0xbc39f6ad	-0.011350316
24	0x3e0d9631	0.13826825
25	0xbe65ee66	-0.22454223
26	0xbe6fbacd	-0.23411103
27	0x3c542a2b	0.012949507
28	0x3d9e7bff	0.07738494
29	0x3f0ee2b4	0.5581467
30	0xbf46c552	-0.77644837
31	0xbee76860	-0.4519682
32	0x3efb6bf6	0.49105805
33	0x3e81b208	0.2533114
34	0x3e8fbf59	0.28075674
35	0xbf9bd9f2	-1.2175887
36	0xbf00fe17	-0.5038771
37	0x3f2048b0	0.6261091
38	0x3f09caaf	0.53824896
39	0x3ea10e56	0.3145625
40	0xbf51e92e	-0.8199643
41	0xbf0a9740	-0.5413704
42	0x3eefffa9	0.4687474
43	0x3e8b560b	0.27214083
44	0x3e1e9e20	0.15490007
45	0xbe133db7	-0.14379011
46	0xbe6af57d	-0.22945209
47	0x3e0d2503	0.1378365
48	0x3ca84794	0.020541944
49	0x3e225f99	0.1585678
50	0xbe8d335c	-0.27578247
51	0xbe6e5a35	-0.23276599
52	0x3e0f92f9	0.1402091
53	0x3e7bf0da	0.24603596
54	0x3f24ce75	0.6437753
55	0xbf1e4ac8	-0.6183286
56	0xbec85f35	-0.39135137
57	0x3ebe49f4	0.37165797
58	0x3f19fe62	0.6015378
59	0x3ef56ce3	0.47934636
60	0xbf90faa8	-1.1326494
61	0xbedcf255	-0.43153635
62	0x3f30e5f9	0.6910091
63	0x3f24b97a	0.64345515
64	0x3eb1c412	0.34719902
65	0xbf5edb1e	-0.87053096
66	0xbf06c466	-0.5264343
67	0x3ea52399	0.3225372
68	0x3e4b636c	0.19862145
69	0x3ddc5068	0.10757524
70	0xbe5758d5	-0.2102998
71	0xbe94fab3	-0.29097518
72	0x3d73774b	0.05943994
73	0x3cd1b95d	0.025601083
74	0x3deccd32	0.115625754
75	0xbe3bcf7a	-0.18340865
76	0xbe29f4a7	-0.16597234
77	0xbe666224	-0.22498375
78	0xbeb82a70	-0.35969877
79	0xbd4c2944	-0.04984404
80	0xbe943d24	-0.28952897
81	0xbe919c58	-0.28439593
82	0xbe180c45	-0.1484843
83	0xbdb4185f	-0.08793711
84	0x3d3d90b8	0.046280593
85	0xbe455481	-0.19270517
86	0xbe245f98	-0.16052091
87	0x3e29d28a	0.1658422
88	0x3e12abfc	0.1432342
89	0x3e4e033f	0.20118426
90	0xbd1c268b	-0.038122695
91	0xbe323225	-0.17401941
92	0x3ced0a39	0.028935539
93	0x3da46d1d	0.08028624
94	0xbda3e638	-0.08002895
95	0xbe8c8c2a	-0.27450687
96	0xbe92b198	-0.28651118
97	0xbe9454c6	-0.28970927
98	0xbe93d3f9	-0.2887266
99	0xbe88ffad	-0.26757565
100	0xbe45327b	-0.19257538
101	0xbe3ddb38	-0.18540657
102	0xbe2a25f8	-0.16616046
103	0xbe469ab4	-0.19394952
104	0xbe43ab48	-0.19108307
105	0xbed36bbc	-0.41293132
106	0xbd99b8b1	-0.0750593
107	0xbd9a96fb	-0.075483285
108	0x3d8baa95	0.06819645
109	0x3bb025aa	0.0053755837
110	0xbe2b22d2	-0.16712502
111	0x3cfe01c7	0.031006707
112	0x3e837189	0.25672558
113	0x3dffe0e4	0.12494066
114	0x3e21abea	0.15788236
115	0xbd62fe65	-0.05541839
116	0xbd6726b6	-0.056433402
117	0x3daee879	0.085404344
118	0xbca9a95b	-0.020710638
119	0xbe049b93	-0.12949972
120	0xbef08ec4	-0.46983922
121	0xbf1042b6	-0.5635179
122	0xbeb0ce9b	-0.34532627
123	0xbec54de0	-0.38535976
124	0xbea9ffca	-0.33202964
125	0x3dd4207c	0.103577584
126	0x3e70e2a7	0.23523961
127	0x3e96cc67	0.29452822
128	0x3eac35f6	0.3363492
129	0x3ee1e6b3	0.44121322
130	0x3d8fa60a	0.07014091
131	0x3eb51737	0.35369274
132	0x3f1d7943	0.61513156
133	0x3f21ad65	0.63155204
134	0x3f022825	0.50842506
135	0x3e8cedb9	0.27525118
136	0x3efad55d	0.48990908
137	0x3f249ddb	0.6430337
138	0x3f07db71	0.53069216
139	0x3ef85c89	0.485081
140	0x3daeb8ec	0.08531365
141	0x3e4a1c54	0.19737369
142	0x3e7e8d82	0.24858668
143	0x3ead353e	0.33829683
144	0x3e91997c	0.28437412
145	0xbe2a5b8f	-0.1663649
146	0xbe4bd689	-0.19906057
147	0xbe0d4301	-0.13795091
148	0xbcf84425	-0.030305931
149	0xbde78e14	-0.11306396
150	0x3e89c2f8	0.26906562
151	0x3ee46878	0.44610953
152	0x3ea558bf	0.3229427
153	0x3e7b3180	0.24530602
154	0x3ce5cd03	0.028051859
155	0x3d11b1d1	0.03556997
156	0x3dfff8b1	0.12498606
157	0x3e020713	0.12698011
158	0x3e130a90	0.14359498
159	0xbdb90a33	-0.090351485
160	0x3be92d70	0.0071160123
161	0x3e55648d	0.20839138
162	0x3e13b1e2	0.14423326
163	0x3d767369	0.060168657
164	0xbdc4c57b	-0.09607979
165	0x3bec3aa5	0.0072091394
166	0xbda50eb0	-0.08059442
167	0xbe2723ba	-0.16322222
168	0xbe8fa960	-0.2805891
169	0xbe266fcc	-0.16253585
170	0xbe9f88ec	-0.3115915
171	0xbea7ac2b	-0.3274854
172	0xbee448a7	-0.4458668
173	0xbec8f818	-0.3925178
174	0xbe186407	-0.14881907
175	0x3eb70f15	0.35753694
176	0x3ebfe290	0.3747754
177	0x3e993c95	0.29929033
178	0x3ddc9867	0.10771256
179	0x3e1e8746	0.1548129
180	0x3da1a361	0.0789249
181	0x3e6253cd	0.2210228
182	0x3dfb79d6	0.12279098
183	0x3d4fa57e	0.050694935
184	0xbe354a7a	-0.17704192
185	0x3e588874	0.21145803
186	0x3db9394b	0.09044131
187	0x3d02f911	0.03197581
188	0xbd08bd55	-0.033383686
189	0xbe0604cc	-0.13087767
190	0xbd49f77c	-0.049308285
191	0xbe3507c0	-0.17678738
192	0xbeaaec04	-0.3338319
193	0xbeab4a69	-0.33455208
194	0xbe351bc0	-0.17686367
195	0xbf08efd3	-0.5349094
196	0xbf0b4db2	-0.5441543
197	0xbf23d527	-0.6399712
198	0xbf0878d4	-0.5330937
199	0xbf0d6916	-0.55238473
200	0x3ea193ff	0.31558225
201	0x3e81f2b7	0.2538049
202	0x3ee76bc4	0.45199406
203	0x3e6e8a98	0.23295057
204	0x3e3dafd7	0.18524109
205	0x3e402017	0.18762241
206	0x3ea64ee7	0.32482073
207	0x3eba5b3f	0.3639774
208	0x3e8bd277	0.2730901
209	0x3e02d317	0.12775837
210	0x3e786131	0.24255826
211	0x3ec236c4	0.37932408
212	0x3e739d71	0.23790528
213	0x3e9bb124	0.30408585
214	0x3e8881f3	0.26661643
215	0x3e3e3a41	0.1857691
216	0x3e1f0420	0.15528917
217	0xbdf7a688	-0.1209231
218	0xbdd5b8f9	-0.10435671
219	0x3dc6e816	0.09712236
220	0xbeb0af8e	-0.34508938
221	0xbe946993	-0.28986797
222	0xbf1b6311	-0.6069804
223	0xbf081214	-0.53152585
224	0xbe780d87	-0.2422391
225	0xbea00bca	-0.31258994
226	0xbe8db092	-0.27673775
227	0xbd9cf77f	-0.07664394
228	0xbd7a7d7c	-0.061154827
229	0xbe3321b1	-0.17493321
230	0xbdab6ced	-0.08370385
231	0x3d1c17a0	0.038108468
232	0x3ed140bd	0.40869704
233	0x3eb8392b	0.35981116
234	0x3e010703	0.12600331
235	0xbca63d97	-0.02029304
236	0x3d0be08a	0.034149684
237	0x3f0539c9	0.520413
238	0x3f486b68	0.7828889
239	0x3eb1abb3	0.3470131
240	0xbe24ebd7	-0.16105591
241	0xbdace465	-0.08442
242	0x3df80f73	0.12112322
243	0x3e81f7c1	0.25384334
244	0x3d6fa526	0.058507107
245	0xbe757662	-0.2397094
246	0xbee37586	-0.444256
247	0xbed5441f	-0.41653535
248	0xbe87b0e9	-0.2650216
249	0xbe8c6af2	-0.27425343
250	0xbef60fed	-0.48059025
251	0xbef09102	-0.46985632
252	0xbe754570	-0.2395227
253	0xbe47f59a	-0.19527283
254	0xbed46ccd	-0.41489258
255	0xbf033bd0	-0.5126314

conv1.bias f4 [32]
0	0xbb07257b	-0.0020621705
1	0xbf02204d	-0.5083054
2	0x3ea3c24b	0.3198417
3	0xbf7fe2eb	-0.99955624
4	0xbf88fcb2	-1.0702116
5	0x3e073aa5	0.13205965
6	0x3e2d313f	0.16913317
7	0x3e810428	0.25198483
8	0x3f50fa0b	0.81631535
9	0xbe9c037d	-0.3047141
10	0x3f1e662b	0.61874646
11	0xbe9dbe8e	-0.30809444
12	0xbf27596b	-0.65370816
13	0x3d62a2d0	0.05533105
14	0xbf5ec5ac	-0.87020373
15	0xbf773497	-0.9656462
16	0xbf874376	-1.0567462
17	0xbf4a46eb	-0.7901446
18	0x3f0e49f8	0.5558162
19	0xbdf6529d	-0.12027476
20	0xbe34cb00	-0.17655563
21	0xbf158518	-0.5840621
22	0x3d46c7c5	0.04853036
23	0xbef877d9	-0.48528937
24	0x3ecf4cbe	0.40488237
25	0xbe2130fd	-0.15741344
26	0xbf012eba	-0.50461924
27	0xbe976594	-0.29569685
28	0xbe969aa4	-0.29414856
29	0xbf5f4d1b	-0.8722703
30	0x3c8fb456	0.017542046
31	0xbf084525	-0.53230506

bn1.weight f4 [32]
0	0x3fc40159	1.5312911
1	0x3e0697bd	0.13143821
2	0x3edd6ccd	0.4324707
3	0x3f1e4d97	0.6183714
4	0x3f395a90	0.7240381
5	0x40202299	2.5021117
6	0x4017947e	2.3684382
7	0x3ef37197	0.475476
8	0x3fe64474	1.798964
9	0x3e0952cd	0.13410492
10	0x3f5f3381	0.87187964
11	0x3eae42d4	0.3403536
12	0x3f53e3d3	0.8276951
13	0x3fdac29f	1.7090644
14	0x3ef3fe64	0.47655022
15	0x3ea44771	0.32085755
16	0x3ef75c9e	0.4831285
17	0x3f9a2fa4	1.2045789
18	0x3f328c8c	0.6974571
19	0x3fcb4d64	1.5882993
20	0x3f9bb7ba	1.2165444
21	0x3f229b59	0.6351829
22	0x3f36ff5d	0.71483403
23	0x3f254870	0.64563656
24	0x3f59c4a1	0.85065657
25	0x3f992c05	1.1966559
26	0x3f6158b6	0.8802599
27	0x3f2527e3	0.6451399
28	0x3f4ebe4e	0.8075913
29	0x3f90657b	1.1280969
30	0x3f817a59	1.0115463
31	0x3e8ff287	0.2811472

bn1.bias f4 [32]
0	0x3e68c530	0.22731471
1	0x3e5684ec	0.20949143
2	0x3d858459	0.06519384
3	0x3ee3d72d	0.44500104
4	0xbd3f0385	-0.046634216
5	0x3e11bf94	0.14233238
6	0x3f4cb004	0.7995608
7	0x3d4c8cc7	0.049938943
8	0x3ecc54cc	0.39908445
9	0x3db4cb38	0.088278234
10	0x3e4acf79	0.19805707
11	0xbe63bbfd	-0.2223968
12	0x3f075f2f	0.52879614
13	0x3ea2c154	0.31788123
14	0x3ee586b3	0.4482933
15	0x3e84da5b	0.25947842
16	0x3e9b84db	0.30374798
17	0x3e6f14a4	0.23347718
18	0x3e5a3836	0.21310505
19	0x3f17b2cb	0.5925719
20	0x3e6c38fe	0.23068616
21	0x3def01d3	0.1167027
22	0x3ea67040	0.32507515
23	0x3e579e65	0.21056516
24	0x3ec3de38	0.38255477
25	0x3f1bc2b0	0.60843945
26	0x3ed14295	0.4087111
27	0x3db50f54	0.08840814
28	0x3f2747cd	0.65343934
29	0x3ed5684d	0.41681138
30	0x3eb1bc47	0.34713957
31	0x3e1e3589	0.1545011

bn1.running_mean f4 [32]
0	0x3f744eeb	0.9543292
1	0x3ec2bee1	0.38036254
2	0x3f82ec32	1.0228331
3	0x3eb1af88	0.34704232
4	0x3eca37d1	0.3949571
5	0x3efd60f7	0.4948804
6	0x3ef0967f	0.4698982
7	0x3f3b39f8	0.7313533
8	0x3f83f8ef	1.0310344
9	0x3f3c6396	0.73589456
10	0x3f5b0ee8	0.8556962
11	0x3f726c56	0.9469656
12	0x3efba126	0.49146384
13	0x3f5f2936	0.8717226
14	0x3f2676ac	0.6502483
15	0x3eb48156	0.35254925
16	0x3e3784a1	0.17921688
17	0x3e2bdf2b	0.1678435
18	0x3fb648f4	1.4241014
19	0x3f2e7a7b	0.6815564
20	0x3e957834	0.2919327
21	0x3eaad454	0.33365119
22	0x3f29bbd3	0.6630222
23	0x3f2b680c	0.6695564
24	0x3f6c31f6	0.92263734
25	0x3efe7477	0.4969823
26	0x3ee36eab	0.4442037
27	0x3f0f2482	0.5591508
28	0x3f1b4d7f	0.60665125
29	0x3eda99ea	0.42695552
30	0x3f59a612	0.8501903
31	0x3f3f7240	0.74783707

bn1.running_var f4 [32]
0	0x404f1a18	3.2359676
1	0x3f4944e2	0.7862073
2	0x402e388b	2.722201
3	0x3f6fd451	0.93683344
4	0x3f16a718	0.58848715
5	0x3f263c2d	0.6493557
6	0x3f16be6a	0.588843
7	0x3fbeb648	1.4899378
8	0x3f9095b5	1.1295687
9	0x3ff1b7c8	1.888421
10	0x400f9ddc	2.24401
11	0x40493679	3.1439497
12	0x3f87b96c	1.0603461
13	0x401b6568	2.4280643
14	0x3fdd0b2f	1.7269038
15	0x3f2aca00	0.6671448
16	0x3e787716	0.24264178
17	0x3e5b20c8	0.21399224
18	0x40114473	2.2698028
19	0x3ff2a61a	1.895694
20	0x3ec4bb00	0.3842392
21	0x3f36d1fa	0.7141415
22	0x3fa2529b	1.2681459
23	0x3fc9f1a4	1.5776868
24	0x3fcb1615	1.5866114
25	0x3f60c6ab	0.87803143
26	0x3f645448	0.89191103
27	0x3f99fc55	1.2030131
28	0x3fb3c7ab	1.4045309
29	0x3f466ad9	0.77506787
30	0x402340d2	2.5508313
31	0x3fd158cd	1.6355225

conv2.weight f4 [32, 32, 5, 5]
0	0x3e345af2	0.17612818
1	0xbd8e88e9	-0.06959707
2	0xbecefcb4	-0.40427172
3	0xbf6f2203	-0.9341127
4	0xbef8d504	-0.48600018
5	0x3e0a6851	0.13516356
6	0x3c96f6dc	0.018428259
7	0xbeba367a	-0.36369687
8	0xbf56aa3f	-0.83853525
9	0xbe919b64	-0.28438866
10	0x3dac18ed	0.08403192
11	0x3ce72c50	0.028219372
12	0xbe0876e3	-0.13326602
13	0xbf1ed348	-0.6204114
14	0xbdf0b9ce	-0.117541894
15	0xbcd52e34	-0.026023008
16	0x3d9d38ef	0.07676875
17	0x3da06268	0.078312695
18	0xbe8d74ac	-0.27628076
19	0x3d207392	0.039172716
20	0xbec96693	-0.3933607
21	0xbd2d5595	-0.042317946
22	0x3da88428	0.08228332
23	0xbd663751	-0.056205098
24	0x3e6a4d2b	0.22881
25	0xbe21d3d6	-0.15803465
26	0xbe045ed3	-0.12926798
27	0xbd91da1b	-0.071216784
28	0xbe2b7400	-0.16743469
29	0xbded77bf	-0.115951054
30	0xbca7a7a0	-0.020465672
31	0xbc8d505a	-0.017250229
32	0xbd235c43	-0.03988291
33	0xbe5ccd2b	-0.2156264
34	0xbe370e0f	-0.17876457
35	0x3dccf38d	0.10007391
36	0x3e2fafcd	0.17156906
37	0x3dc52fe7	0.09628277
38	0xbe0b6c3b	-0.13615505
39	0xbe18facf	-0.14939426
40	0x3d3eeda5	0.046613354
41	0x3de41536	0.11136858
42	0x3da0248e	0.07819472
43	0xbd908d17	-0.07058161
44	0xbda3cb15	-0.07997719
45	0xbdbc6127	-0.09198218
46	0x3d37c294	0.0448633
47	0x3da58e1c	0.08083746
48	0x3dba97ef	0.0911101
49	0x3d985b52	0.07439293
50	0xbe30b9b9	-0.17258348
51	0xbd479381	-0.048724655
52	0xbdca7f34	-0.09887543
53	0xbdfe8b3d	-0.12428901
54	0xbe37f87b	-0.17965882
55	0xbd84e8b3	-0.06489696
56	0xbd3fd037	-0.04682943
57	0xba817e9c	-0.0009879651
58	0xbd7e7cc3	-0.0621307
59	0xbcddfe36	-0.027098756
60	0x3e3e7fd5	0.18603452
61	0x3e2fe01a	0.17175332
62	0x3de9a176	0.11407749
63	0x3dac5100	0.08413887
64	0x3d0f6ba1	0.035014752
65	0x3cc45ad6	0.023969095
66	0x3db2b010	0.087249875
67	0x3dd859e1	0.10564018
68	0x3de1bbaa	0.11022122
69	0xbcf200b8	-0.029541358
70	0xbdc252c7	-0.09488445
71	0x3ca507bb	0.020145288
72	0x3d849d0b	0.06475266
73	0x3d4cea61	0.05002821
74	0xbd033ec1	-0.03204227
75	0xbebabc17	-0.36471626
76	0xbeb16bde	-0.3465261
77	0xbed7c5f8	-0.42143226
78	0xbf3b188b	-0.73084325
79	0xbe80fab3	-0.25191268
80	0xbe17c811	-0.14822413
81	0xbccd3e9f	-0.025054274
82	0xbefc71fb	-0.4930571
83	0xbf482659	-0.78183514
84	0xbf11e35e	-0.5698756
85	0x3d1f3810	0.038871825
86	0x3e7ed865	0.24887235
87	0xbd57f321	-0.0527221
88	0xbeab81ed	-0.33497563
89	0xbe868f89	-0.26281384
90	0xbd56017f	-0.05224752
91	0x3e276d11	0.163502
92	0x3cdf00c8	0.027222052
93	0xbe0cf96e	-0.13767025
94	0xbd5d1f45	-0.0539849
95	0xbe35245a	-0.17689648
96	0xbd5a1237	-0.053240027
97	0x3c460827	0.012086905
98	0x3dd04a0c	0.10170373
99	0x3e5e5048	0.21710312
100	0x3e24b5fb	0.16085045
101	0xbc6056f0	-0.0136926025
102	0xbdfac22b	-0.12244066
103	0xbe0004d8	-0.12501848
104	0xbd99c1ef	-0.07507693
105	0x3db75ac5	0.0895286
106	0x3d70c78c	0.058784053
107	0xbe0490c7	-0.12945853
108	0xbde9e46e	-0.11420523
109	0xbc3650a5	-0.011127626
110	0xbe3c1b40	-0.1836977
111	0xbe3a5056	-0.18194708
112	0xbe2a5ec6	-0.16637716
113	0xbe2d890c	-0.1694681
114	0xbd5f4957	-0.0545133
115	0xbdd95bdc	-0.10613224
116	0xbd9533b3	-0.072852515
117	0xbd42e8b3	-0.0475852
118	0x3d44fa35	0.04809018
119	0x3d439409	0.0477486
120	0xbdd050ed	-0.10171685
121	0xbdd22ad0	-0.10262072
122	0xbd5379aa	-0.0516297
123	0x3c9c0bc0	0.019048572
124	0xbb9eddda	-0.004848224
125	0xbe036fb0	-0.12835574
126	0x3e8025e6	0.25028914
127	0x3f09a765	0.5377105
128	0x3ebe4686	0.3716318
129	0xbe139086	-0.144106
130	0x3dbe0b55	0.09279505
131	0x3e39960e	0.18123648
132	0x3eb98eb9	0.362417
133	0x3f00c2b0	0.5029707
134	0x3effca7e	0.49959177
135	0x3c2ce015	0.010551472
136	0x3e7e6c63	0.24846034
137	0x3e3de05b	0.18542616
138	0x3e241d60	0.1602683
139	0x3e67bc7a	0.22630492
140	0xbf33c2e7	-0.7021927
141	0xbec65c34	-0.3874222
142	0xbe342e1f	-0.17595719
143	0xbe15af27	-0.14617597
144	0xba3156be	-0.000676494
145	0xbf2583c8	-0.6465421
146	0xbee085ac	-0.43851984
147	0xbe1c6d81	-0.15276147
148	0xbe32ae5e	-0.17449328
149	0xbe0eb599	-0.13936462
150	0x3e16fe3b	0.14745419
151	0x3e064e55	0.13115819
152	0xbec92a93	-0.39290294
153	0xbf0bafc9	-0.545651
154	0x3a8f1af2	0.0010918065
155	0x3d346686	0.044043086
156	0x3e2bd10e	0.16778967
157	0xbdc20525	-0.094736375
158	0xbeb859e7	-0.3600609
159	0x3e1e459f	0.15456246
160	0xbde62971	-0.11238373
161	0xbe255969	-0.16147389
162	0x3d63e417	0.055637445
163	0xbddf5205	-0.10904316
164	0x3ca8d341	0.020608546
165	0xbe834dcb	-0.2564529
166	0xbe5e5993	-0.21713857
167	0xbe4f36d3	-0.20235758
168	0xbe494277	-0.1965426
169	0xbc264882	-0.010149123
170	0xbe8fed5d	-0.2811078
171	0xbe8e39ab	-0.27778372
172	0xbe9dece9	-0.3084481
173	0xbe6ae77a	-0.22939864
174	0xbe77dae2	-0.24204591
175	0x3dcc0de2	0.099635854
176	0x3e75bfad	0.239989
177	0x3e8b341c	0.27188194
178	0x3ea7927e	0.32728952
179	0x3e1b47ec	0.15164155
180	0xbd11ebee	-0.03562539
181	0x3e9b2185	0.3029901
182	0x3e9fd260	0.3121519
183	0x3ecc75a6	0.3993351
184	0x3e97c60d	0.29643288
185	0xbdb9804f	-0.09057676
186	0x3dec8d99	0.11550445
187	0x3e909a4f	0.28242728
188	0x3ec41fdf	0.38305566
189	0x3edd86d4	0.43266928
190	0x3c879c66	0.016554069
191	0x3dde99d0	0.10869181
192	0x3dd907c4	0.10597184
193	0x3e24820b	0.16065232
194	0x3e6de7de	0.23232982
195	0xbd1518b4	-0.03640051
196	0x3e1323bf	0.14369105
197	0xbd522fb5	-0.05131503
198	0xbda9315a	-0.08261366
199	0x3dc1856e	0.09449278
200	0x3cd52b32	0.026021574
201	0x3e60b91c	0.21945614
202	0x3e4de34f	0.20106243
203	0xbde09f98	-0.1096794
204	0xbe708db5	-0.23491557
205	0x3dd3fb5a	0.10350676
206	0x3e3847f0	0.17996192
207	0x3edd9c58	0.43283343
208	0x3ddf3152	0.10898079
209	0x3d52aef9	0.0514364
210	0xbc6aa97c	-0.014322635
211	0xbda31b74	-0.07964221
212	0x3ecd4a8e	0.40095943
213	0x3ec7c16b	0.39014754
214	0x3e96b682	0.29436117
215	0x3c6b5763	0.014364096
216	0xbe4b3556	-0.19844565
217	0x3dd12726	0.10212545
218	0x3ee9691d	0.45588008
219	0x3e9e502a	0.30920535
220	0x3cc539f8	0.024075493
221	0xbeafadf9	-0.34312418
222	0xbe3fde0b	-0.18737046
223	0x3ea77ec6	0.32713908
224	0x3e35a85a	0.17740002
225	0xbdd06c67	-0.10176926
226	0xbd904856	-0.07045047
227	0xbde18179	-0.11011023
228	0x3d3bc50e	0.045842223
229	0x3d248c93	0.040173125
230	0xbe3eb329	-0.18623032
231	0x3dc47d72	0.09594239
232	0x3e1ceb28	0.1532408
233	0x3def0385	0.11670593
234	0x3d80a1cc	0.0628086
235	0xbe3d0057	-0.18457161
236	0x3de92509	0.11384017
237	0x3e0a4910	0.13504434
238	0x3e58a17d	0.21155353
239	0x3d8f0abf	0.069844715
240	0xbe27018b	-0.16309182
241	0xbe063666	-0.13106689
242	0xbd9fe616	-0.07807557
243	0x3bd55a4e	0.0065110093
244	0x3dace8e1	0.084428556
245	0xbe780d14	-0.24223739
246	0xbe50d9d7	-0.203956
247	0xbe2510e4	-0.16119725
248	0xbdd317fd	-0.1030731
249	0xbd5acb9e	-0.05341684
250	0xbf2e86b9	-0.6817432
251	0xbf1736de	-0.59068096
252	0xbede3302	-0.4339829
253	0xbeb8d10b	-0.36096987
254	0xbe646bbd	-0.22306724
255	0xbdbc5b88	-0.09197146

conv2.bias f4 [32]
0	0xbe8f4b46	-0.27987117
1	0x3de2caf0	0.110738635
2	0xbea0f999	-0.31440428
3	0xbe203e0b	-0.15648668
4	0xbdbdeefe	-0.092741
5	0xbd9387a8	-0.07203609
6	0xbe258292	-0.1616309
7	0xbe7fe020	-0.2498784
8	0xbde3c94a	-0.11122377
9	0xbe247582	-0.1606045
10	0xbe63a3a1	-0.22230388
11	0xbe8624ae	-0.2619986
12	0xbe818d9a	-0.25303346
13	0xbeb60b0c	-0.35555303
14	0xbe877bb3	-0.26461563
15	0x3dcf8c39	0.10134167
16	0xbeab9f7f	-0.33520123
17	0xbf3a75f5	-0.7283624
18	0xbf876315	-1.0577112
19	0xbf123414	-0.57110715
20	0xbed51f89	-0.41625622
21	0xbeed938f	-0.4640164
22	0xbee8b7a5	-0.4545261
23	0x3dce7f62	0.1008289
24	0xbd91fcf9	-0.07128329
25	0x3ec3db80	0.38253403
26	0xbf146c45	-0.57977706
27	0xbf532fb4	-0.82494664
28	0xbf241b6b	-0.64104337
29	0x3f65b573	0.89729995
30	0xbf400b25	-0.75017005
31	0x3e8dbed8	0.27684665

bn2.weight f4 [32]
0	0x3f992505	1.1964422
1	0x3f70e44b	0.9409835
2	0x3f554679	0.8331066
3	0x3f4b1236	0.7932466
4	0x3f86bc6e	1.0526254
5	0x3f8c4f90	1.096178
6	0x3fae106e	1.3598764
7	0x3fc770a6	1.5581253
8	0x3f999246	1.1997764
9	0x3f97dafb	1.1863703
10	0x3f847354	1.0347695
11	0x3f40e0ca	0.75343
12	0x3f7b873b	0.9825322
13	0x3fa00b00	1.2503357
14	0x3f9eec29	1.241582
15	0x3f6c0b33	0.9220459
16	0x3f7da188	0.990746
17	0x3fb80df1	1.4379255
18	0x3f74c132	0.9560729
19	0x3fbe4630	1.486517
20	0x3fd32e37	1.6498479
21	0x3f7a3d1a	0.97749484
22	0x3f7ff0cf	0.9997682
23	0x3f8cf943	1.1013569
24	0x3f727f53	0.9472553
25	0x3f7c8141	0.98634726
26	0x3f8a035c	1.0782275
27	0x3fbda465	1.4815794
28	0x3f9b16a7	1.2116288
29	0x3f8de98a	1.1086895
30	0x3f7d669a	0.9898468
31	0x3fb32d72	1.3998244

bn2.bias f4 [32]
0	0xbe4c0f99	-0.19927825
1	0xbdaf81ea	-0.08569701
2	0xbd6a6c5b	-0.057232242
3	0x3d819457	0.06327122
4	0xbe9a5734	-0.30144656
5	0xbe32c85c	-0.17459244
6	0xbe9fbc1f	-0.31198213
7	0xbf0ed63f	-0.55795664
8	0xbef07014	-0.4696051
9	0xbe01c9dc	-0.1267466
10	0xbdc73c57	-0.09728306
11	0x3e0f613a	0.14001933
12	0xbe5d00c2	-0.2158232
13	0xbecf3cae	-0.40475982
14	0xbeb88f99	-0.36047056
15	0xbe6dc8d0	-0.23221135
16	0x3dc35f1e	0.095396265
17	0xbf2013a3	-0.62529963
18	0xbe3baba2	-0.18327191
19	0xbe90a5fb	-0.28251633
20	0xbef4077a	-0.47661954
21	0x3d3b482e	0.045723133
22	0xbd554d41	-0.05207563
23	0x3e349ba7	0.17637502
24	0xbe37d7c5	-0.17953403
25	0xbea32b5f	-0.31869027
26	0x3d8a7756	0.06761043
27	0xbedf3efa	-0.43602735
28	0xbe4d74e5	-0.20064123
29	0xbe5ad04f	-0.21368526
30	0x3c50ec7e	0.012751697
31	0xbd01fc18	-0.031734556

bn2.running_mean f4 [32]
0	0x3fde4d02	1.7367251
1	0x3fd47122	1.6597025
2	0x400fd5e6	2.2474303
3	0x40c71a02	6.221925
4	0x4079e1fb	3.9044178
5	0x3fbfe0b0	1.4990444
6	0x407f2c7e	3.9870906
7	0x40c21c28	6.065937
8	0x40251165	2.5791867
9	0x408f63b1	4.4809194
10	0x41424af2	12.143297
11	0x402515c7	2.5794542
12	0x40b180be	5.5469656
13	0x40564f4f	3.3485906
14	0x402b5714	2.6771898
15	0x405c5e63	3.443261
16	0x410d2fd6	8.824179
17	0x406bd538	3.6848888
18	0x3fc0f3c6	1.5074394
19	0x4065271c	3.580512
20	0x40a4698b	5.1378837
21	0x3f92c77e	1.146713
22	0x40426cea	3.0378976
23	0x4144ccfe	12.300047
24	0x40bc6b27	5.88808
25	0x40b70377	5.719173
26	0x40807328	4.014057
27	0x4015233c	2.3302755
28	0x4014fe26	2.328012
29	0x409b1b8a	4.8471117
30	0x40a099ca	5.018773
31	0x40acf7fd	5.405272

bn2.running_var f4 [32]
0	0x4211b599	36.42734
1	0x41b7b309	22.96242
2	0x422d31c7	43.29861
3	0x42d2d0e5	105.408
4	0x42d1e6c6	104.95073
5	0x41c6315e	24.774105
6	0x42d9463f	108.6372
7	0x432380d6	163.50327
8	0x42592d86	54.294456
9	0x42c80fa2	100.03053
10	0x43b1d2d9	355.64725
11	0x42364843	45.570568
12	0x42eea37c	119.319305
13	0x42b48238	90.25433
14	0x426a4574	58.567825
15	0x42a3db3a	81.92818
16	0x4355131a	213.07462
17	0x42a74956	83.643234
18	0x41d6e9b8	26.86412
19	0x42bc6b05	94.20902
20	0x430b9356	139.57553
21	0x4194d905	18.605967
22	0x42b261d6	89.191086
23	0x4392498c	292.5746
24	0x43032aa1	131.16652
25	0x42bc945e	94.28978
26	0x429e0247	79.00445
27	0x4252d5cf	52.708797
28	0x425c8f23	55.139782
29	0x42a91814	84.54703
30	0x43049937	132.5985
31	0x42e4fa24	114.488556

fc1.weight f4 [100, 128]
0	0x3d11f762	0.035636313
1	0xbc66fcb8	-0.014098339
2	0xbd9113c3	-0.070838474
3	0xbce07200	-0.02739811
4	0xbe010d46	-0.1260272
5	0xbc16b235	-0.009197761
6	0xbe02a4ad	-0.12758131
7	0x3d1992d5	0.037493546
8	0xbe21f8b2	-0.15817526
9	0xbdc0a722	-0.09406878
10	0xbda29f9d	-0.079406
11	0xbd91936d	-0.07108197
12	0xbbcf1792	-0.0063199485
13	0xbd0395e5	-0.032125372
14	0xbdbe9edd	-0.093076445
15	0x3becdc35	0.007228399
16	0x3c6ed12c	0.014576238
17	0xbdc57bc0	-0.09642744
18	0xbdf4ad75	-0.11947147
19	0x3d3ffeb1	0.046873752
20	0xbd3bbd09	-0.045834575
21	0xbde55b1f	-0.111990206
22	0x3dc50572	0.09620179
23	0x3dbc2813	0.09187331
24	0xbd4a5f5b	-0.049407344
25	0xbc921327	-0.017831398
26	0xbc67f7de	-0.014158217
27	0xbda31ba6	-0.07964258
28	0xbe0f2994	-0.13980705
29	0xbd885b5a	-0.06658049
30	0xbd0e9a94	-0.034815386
31	0xbcdb28f1	-0.02675292
32	0xbd9ec4ab	-0.07752355
33	0xbd5d8f5b	-0.054091793
34	0x3b89ae3e	0.0042016795
35	0x3de1499f	0.1100037
36	0x3e2670c3	0.16253953
37	0xbdc0112f	-0.093782775
38	0xbd553475	-0.05205198
39	0xbcbbb855	-0.022915045
40	0xbcfb2cd7	-0.03066103
41	0xbd20fd30	-0.03930396
42	0x3d23e49c	0.04001294
43	0x3c630ba1	0.013857753
44	0xbe0d84f0	-0.13820243
45	0xbd82f652	-0.06394638
46	0x3d66c507	0.056340244
47	0x3df8ce72	0.12148751
48	0x3cac9313	0.021066224
49	0x3cf04f7f	0.029334782
50	0xba93c21c	-0.0011273059
51	0x3da2a395	0.07941357
52	0x3c0885ed	0.008332712
53	0x3dc01a4c	0.09380016
54	0xbdbadc6b	-0.09124073
55	0x3cc60538	0.02417241
56	0x3d0f5d40	0.03500104
57	0xbd044b96	-0.032298647
58	0x3dc5377d	0.09629724
59	0x3d91f337	0.07126468
60	0x3d934224	0.0719035
61	0xbd8c89f0	-0.06862247
62	0x3d2e7791	0.042594496
63	0x3cd89d64	0.026442237
64	0x3d3055bf	0.043050524
65	0xbd6ff556	-0.05858358
66	0xbc2fff50	-0.010742024
67	0xbd33bba4	-0.04388012
68	0xbd974282	-0.07385732
69	0xbdf92d42	-0.12166835
70	0x3db702ec	0.08936104
71	0x3c532739	0.012887769
72	0x3ca9aa44	0.020711072
73	0x3c2699c9	0.010168501
74	0xbc4f337f	-0.012646555
75	0x3d60a0d9	0.054840896
76	0xbd88cec6	-0.06680064
77	0x3daa1e31	0.0830654
78	0xbcd9310c	-0.026512645
79	0xbc9f35d9	-0.019434856
80	0xbddde85d	-0.108353354
81	0x3cc5965f	0.024119554
82	0xbdda7e7a	-0.10668655
83	0xbd0f63a1	-0.035007123
84	0x3d28c73d	0.041205633
85	0xbdbb6bcb	-0.09151419
86	0xbde6cee4	-0.1126993
87	0xbcd6c4c8	-0.02621688
88	0x3d67cdbb	0.056592684
89	0x3e0be5ac	0.13661832
90	0xbd95370c	-0.0728589
91	0xbc0c015f	-0.008545249
92	0xbdeb7863	-0.11497571
93	0xbc855f5c	-0.016280822
94	0xbda0c0a7	-0.078492455
95	0xbd7349cb	-0.059396546
96	0x3d6cf792	0.05785329
97	0x3d73d9b7	0.0595338
98	0x3dc14b7a	0.09438224
99	0x3dab099a	0.08351441
100	0xbdab40fa	-0.08362003
101	0xbbd85642	-0.0066020796
102	0x3c45a6e8	0.012063719
103	0xbd77ab47	-0.060466077
104	0x3d38850b	0.045048755
105	0xbd81be01	-0.063350685
106	0xbc32db74	-0.0109165795
107	0xbdc11d97	-0.09429472
108	0x3da1aee1	0.07894684
109	0xbbff846a	-0.0077977674
110	0xbdb551f2	-0.088535205
111	0xbd93796e	-0.07200895
112	0x3cb0f819	0.021602677
113	0xbdbc8217	-0.092045
114	0xbe222074	-0.15832692
115	0x3d1285bd	0.035772074
116	0x3dad7fc6	0.084716365
117	0x3d05873e	0.03259968
118	0xbd01337b	-0.031543236
119	0x3d310414	0.04321678
120	0xbc9fe3d0	-0.01951781
121	0x3d2e527b	0.04255913
122	0x3db2b5be	0.08726071
123	0xbb41c744	-0.0029568234
124	0x3d90f267	0.070774846
125	0x3d61d388	0.055133373
126	0x3c42a194	0.011879344
127	0x3dd23ebb	0.10265871
128	0xbdb8622f	-0.09003102
129	0x3ded5b8f	0.11589729
130	0xbdfac24f	-0.12244093
131	0xbdf47af5	-0.11937515
132	0xbe1ac2f3	-0.1511343
133	0x3cd5d90a	0.026104469
134	0xbe304485	-0.17213638
135	0x3e3570b2	0.17718771
136	0x3cadeefd	0.021232123
137	0x3c3f1bf3	0.011664378
138	0xbdb524e9	-0.08844931
139	0xbb9f8684	-0.0048683304
140	0xbd79acde	-0.060955875
141	0x3d9aa4ab	0.07550939
142	0xbddc635b	-0.10761138
143	0x3b9eb999	0.0048439023
144	0x3d4f335a	0.050586082
145	0xbe01944f	-0.12654231
146	0x3cd0a107	0.025467409
147	0xbd3db47c	-0.0463147
148	0xbd76f6cd	-0.06029396
149	0xbe0132f6	-0.12617096
150	0x3c955d97	0.018233104
151	0x3c4cb236	0.012493661
152	0x3da99461	0.08280254
153	0xbdaf3a42	-0.08556034
154	0xbd20a054	-0.0392154
155	0xbd9a7b08	-0.075429976
156	0xbde0fb36	-0.10985415
157	0xbe08daea	-0.13364759
158	0x3c3ad674	0.011403669
159	0xba5e3f99	-0.0008478105
160	0xbc349e31	-0.011024044
161	0xbdffff84	-0.124999076
162	0xbdae5071	-0.08511437
163	0x3b9797ea	0.004626264
164	0x3d4bac73	0.049725007
165	0xbdf3800c	-0.118896574
166	0xbcf45f51	-0.029830607
167	0x3c9dee22	0.01927859
168	0xbe0e075b	-0.13869993
169	0x3c0c9c07	0.008582122
170	0xbd05c2c4	-0.032656446
171	0x3ccb4438	0.024812803
172	0xbde50898	-0.1118328
173	0x3deeac25	0.11653928
174	0x3cced828	0.025249556
175	0x3d99200a	0.07476814
176	0xbd90ee78	-0.07076734
177	0x3c67f189	0.014156708
178	0xbdda00aa	-0.10644658
179	0x3d57f2e3	0.05272187
180	0x3d13dfd9	0.03610215
181	0x3d005fdd	0.031341422
182	0xbd7f4b6d	-0.06232779
183	0x3d8fa948	0.0701471
184	0x3c8f727e	0.017510649
185	0xbdf9e76a	-0.12202342
186	0xbd32d375	-0.043658692
187	0x3ce6880b	0.028141042
188	0xbdfd2a18	-0.12361544
189	0x3d138737	0.036017623
190	0x3d2f6fea	0.04283134
191	0x3da18818	0.07887286
192	0xbce335e8	-0.027735665
193	0xbc3228f5	-0.010874023
194	0x3d1b71cd	0.037950326
195	0xba513e53	-0.00079820043
196	0xbe32b750	-0.1745274
197	0x3d6ac2ac	0.05731456
198	0xbdb4ae50	-0.0882231
199	0x3df71f25	0.12066487
200	0xbdd57140	-0.10421991
201	0x3e08b0d1	0.133487
202	0xbac37e8b	-0.0014915032
203	0xbd532ce0	-0.051556468
204	0x3cf444b2	0.029817913
205	0x3b370b76	0.0027930415
206	0x3d08fa8f	0.033442076
207	0x3d5bbfdb	0.053649765
208	0x3dd3fb9a	0.103507236
209	0xbdf3b969	-0.119005986
210	0x3b8b9547	0.0042597386
211	0x3d4f4c6e	0.05061
212	0x3d1271ce	0.035753064
213	0x3da58fa8	0.08084041
214	0xbd5f9edf	-0.05459487
215	0xbe145b29	-0.144879
216	0xbde45aa6	-0.11150102
217	0x3d8aa8ab	0.06770452
218	0xbe6ec7b2	-0.23318365
219	0xbe0daa18	-0.13834417
220	0xbd8175a1	-0.06321264
221	0xbda01bdc	-0.07817814
222	0xbdf1bb81	-0.11803342
223	0xbc10b67a	-0.008832568
224	0xbc373047	-0.011180944
225	0x3d4191be	0.04725813
226	0xbd6d43cc	-0.057925984
227	0xbd863edd	-0.06554959
228	0xbd4c27c1	-0.0498426
229	0x3c4d09cf	0.012514546
230	0x3c98f854	0.0186731
231	0x3dcd1f73	0.10015764
232	0x3dc31e23	0.095272325
233	0xbdae2d64	-0.08504751
234	0x3daa8ded	0.083278514
235	0xbe0a1fbf	-0.13488673
236	0xbd8ab0aa	-0.06771977
237	0xbe14e365	-0.14539869
238	0x3cd02c0f	0.025411634
239	0xbe3029c8	-0.17203438
240	0x3abab8e0	0.0014245771
241	0xbc115ba7	-0.008871949
242	0xbcb92eca	-0.022605319
243	0x3e341d74	0.1758936
244	0x3e13fc34	0.14451677
245	0xbd42dcf2	-0.04757399
246	0xbd0dc5fd	-0.034612644
247	0xbdd3789a	-0.10325737
248	0xbcca88e9	-0.024723487
249	0xbda6b78d	-0.08140478
250	0xbdc646dc	-0.09681484
251	0x3e4434d7	0.19160782
252	0xbdfbd1e0	-0.1229589
253	0xbda66485	-0.08124641
254	0x3d11eb67	0.035624888
255	0xbd0d9593	-0.034566473

fc1.bias f4 [100]
0	0xbebff934	-0.37494814
1	0xbee9d236	-0.4566819
2	0xbe709ec6	-0.23498067
3	0xbebc3200	-0.36756897
4	0xbea0b47c	-0.313877
5	0xbefe4186	-0.49659365
6	0xbdce4711	-0.100721486
7	0xbec202be	-0.37892717
8	0xbed2db65	-0.4118301
9	0xbeda85eb	-0.42680296
10	0xbef546c7	-0.4790556
11	0x3e2ebd2a	0.17064348
12	0xbeb1e7f9	-0.34747294
13	0xbd456811	-0.04819495
14	0xbee6d7a1	-0.45086387
15	0x3e5e258e	0.21694013
16	0xbe9dc1a8	-0.3081181
17	0xbe1311ba	-0.14362231
18	0xbf1ab544	-0.6043284
19	0xbed5afa7	-0.41735575
20	0xbef0d8c2	-0.47040373
21	0xbe8168b1	-0.25275186
22	0x3e228c50	0.15873837
23	0xbf01ac06	-0.5065311
24	0xbeda8f14	-0.42687285
25	0x3e5a3a8c	0.21311396
26	0xbed2ffd8	-0.41210818
27	0xbecb741d	-0.39737025
28	0xbebf0ccc	-0.3731445
29	0xbedcaf05	-0.4310228
30	0xbf001810	-0.50036716
31	0xbee9f1c7	-0.45692274
32	0xbeb8f46a	-0.36123973
33	0x3cee0539	0.029055225
34	0xbea528da	-0.3225773
35	0xbdcf1737	-0.1011185
36	0xbee4b1cb	-0.44666895
37	0xbeb5f9a4	-0.35542023
38	0xbea4d023	-0.32190046
39	0xbee1ca90	-0.44099855
40	0xbeb3e31e	-0.35134214
41	0xbeca5e26	-0.39524955
42	0xbe6a9763	-0.22909312
43	0xbe01eead	-0.12688704
44	0xbd686534	-0.05673714
45	0xbe2c8079	-0.16845883
46	0xbeeaff26	-0.45897788
47	0xbebbf3eb	-0.36709532
48	0xbe9eed8a	-0.31040603
49	0xbe170d81	-0.14751245
50	0xbec3e54a	-0.3826087
51	0x3d6e5dc2	0.058194883
52	0xbca20f51	-0.019782694
53	0xbe92d99b	-0.28681645
54	0xbdd2039b	-0.10254594
55	0xbdf95d52	-0.121760026
56	0xbed3b17e	-0.41346353
57	0xbe422d6b	-0.18962638
58	0xbe435a6e	-0.19077465
59	0xbe8d133f	-0.27553746
60	0xbe65cbad	-0.22440977
61	0xbee8a507	-0.45438406
62	0xbec0a759	-0.37627676
63	0xbeab8cd2	-0.33505875
64	0xbeaf1361	-0.34194472
65	0xbef315dc	-0.47477615
66	0xbe715d0c	-0.23570651
67	0xbecdf8c5	-0.4022886
68	0xbf14e385	-0.5815967
69	0xbed08adc	-0.4073094
70	0xbec13035	-0.37732092
71	0xbda24b3b	-0.07924505
72	0xbebf5e12	-0.37376457
73	0xbef6b2a6	-0.48183173
74	0xbed41dde	-0.41429037
75	0xbe08886b	-0.1333329
76	0xbebf1ed3	-0.37328205
77	0xbf077f21	-0.5292836
78	0x3e210caa	0.15727487
79	0xbeb5e2f7	-0.35524723
80	0xbef75fcd	-0.48315278
81	0xbeebabf1	-0.46029618
82	0xbe68f240	-0.22748661
83	0xbf063c60	-0.52435875
84	0xbea83f81	-0.3286095
85	0xbe8f4db6	-0.27988976
86	0xbee68b4d	-0.45028153
87	0xbf05ecde	-0.52314556
88	0xbd96c9bc	-0.073626965
89	0xbf012dfe	-0.50460804
90	0xbdc8e8a8	-0.09810001
91	0xbe040ae4	-0.1289478
92	0xbef87462	-0.48526293
93	0xbeb79f61	-0.35863784
94	0x3e11575a	0.14193478
95	0xbefbf1c5	-0.49207893
96	0xbed8cb60	-0.42342663
97	0xbec4fd51	-0.38474515
98	0xbef11a9f	-0.47090623
99	0xbed0c34d	-0.40774003

fc2.weight f4 [10, 100]
0	0x3d108493	0.035282683
1	0x3d0c8656	0.0343078
2	0xbe943e1c	-0.28953636
3	0xbc82ea9a	-0.015981007
4	0xbcb4a24c	-0.022050045
5	0xbb150e69	-0.0022744185
6	0xbdcb7111	-0.09933675
7	0xbcb79c19	-0.0224133
8	0xbd382b21	-0.044963006
9	0xbd10ef49	-0.03538445
10	0xbc5c802f	-0.013458296
11	0xbe76f072	-0.2411516
12	0xbe860fba	-0.26183873
13	0x3e003e0c	0.12523669
14	0x3e594099	0.21216048
15	0xbd454713	-0.048163485
16	0x3da12272	0.07867898
17	0xbe28a02d	-0.16467352
18	0xbc43d508	-0.011952646
19	0x3d12a746	0.035804056
20	0x3de0a766	0.10969429
21	0x3d4ad89e	0.04952299
22	0x3e2772d7	0.16352402
23	0xbd87d353	-0.06632104
24	0x3e1d84f3	0.15382747
25	0x3eeb0f94	0.45910323
26	0xbb678471	-0.0035326744
27	0x3ccd0f1a	0.025031615
28	0x3d7ff1b4	0.062486365
29	0xbcf80714	-0.030276813
30	0x3b2b2fbd	0.0026120984
31	0xbef20e8f	-0.47276732
32	0xbdcfacf7	-0.10140412
33	0xbe10af3d	-0.14129348
34	0x3e35d55c	0.17757171
35	0xbe8793a6	-0.26479834
36	0xbd8c00b4	-0.068360716
37	0xbdaae528	-0.08344489
38	0xbccd56dc	-0.025065832
39	0xbda8b113	-0.08236899
40	0xbc1d8c9a	-0.009616042
41	0xbcb77000	-0.022392273
42	0xbd16f7fd	-0.036857594
43	0xbdc48347	-0.09595352
44	0x3dcf6968	0.101275265
45	0xbe8a5136	-0.27015084
46	0xbc5e79a8	-0.01357881
47	0x3c78cee7	0.015186048
48	0x3cc85462	0.0244543
49	0x3e059c76	0.13047966
50	0x3e13a92e	0.14420006
51	0xbebab697	-0.3646743
52	0xbeda20ea	-0.42603236
53	0x3e173ec2	0.14770034
54	0x3dbec66e	0.09315191
55	0xbdc0e44c	-0.09418544
56	0xbc96ee48	-0.018424168
57	0x3bb3ecb5	0.005490864
58	0x3d9b241e	0.07575248
59	0xbe59dbd7	-0.21275268
60	0xbe26589d	-0.16244741
61	0xbce295ce	-0.027659323
62	0x3cb3050f	0.021852998
63	0x3ce8caee	0.028417077
64	0x3cc73064	0.024315067
65	0xbdca673c	-0.09882972
66	0x3e330094	0.1748069
67	0x3df08df0	0.117458224
68	0x3d0f9d17	0.035061922
69	0x3d7634ca	0.060108937
70	0x3d1df325	0.03856196
71	0xbda8fad7	-0.08250969
72	0xbdaf1c17	-0.085502796
73	0x3db7186c	0.08940205
74	0xbcd95451	-0.026529463
75	0xbe4cad2f	-0.1998794
76	0x3aea803c	0.0017891
77	0xbe4fd221	-0.20295002
78	0xbe9fea9f	-0.3123369
79	0x3e12125e	0.14264819
80	0xbe510b74	-0.20414525
81	0xbcf09c30	-0.029371351
82	0x3da45bbf	0.08025312
83	0xbc9b402b	-0.018951496
84	0xbcd4c27e	-0.025971647
85	0xbe898490	-0.2685895
86	0xbe8e39f0	-0.27778578
87	0xbcd533ee	-0.026025739
88	0xbcf7d069	-0.030250745
89	0x3d9ba22d	0.07599292
90	0xbdde21a8	-0.10846263
91	0xbe1016ad	-0.1407115
92	0x3e35a9e8	0.17740595
93	0xbe295365	-0.16535719
94	0xbe620df3	-0.22075634
95	0xbe2ab5a2	-0.1667085
96	0xbca4bcba	-0.020109523
97	0x3c2ee702	0.010675194
98	0x3e1a78aa	0.15085092
99	0x3c1c97e9	0.009557703
100	0x3d96bb5c	0.07359955
101	0xbd094f46	-0.033522867
102	0xbdd3cd1a	-0.103418544
103	0x3d6a2a5d	0.057169307
104	0xbc4f4c9d	-0.012652543
105	0xbceebce8	-0.029142812
106	0xbdf1b24b	-0.11801585
107	0xbe2324d0	-0.15932012
108	0xbd677c1c	-0.056514844
109	0xbdbe80d6	-0.09301917
110	0xbda79bbc	-0.08184001
111	0xbe8e8270	-0.2783389
112	0x3d48dbce	0.049037747
113	0xbdf70589	-0.120616026
114	0xbe49d6be	-0.19710824
115	0xbf0eec37	-0.55829185
116	0x3c8796f0	0.016551465
117	0xbe89246d	-0.26785603
118	0x3cb460df	0.022018848
119	0xbbc05d83	-0.0058705225
120	0xbedaa284	-0.42702115
121	0x3a3ec8f1	0.00072778674
122	0xbd220205	-0.039552707
123	0x3afba093	0.0019197635
124	0xbd06ab78	-0.03287837
125	0xbe561704	-0.20907217
126	0x3d818143	0.06323483
127	0xbc083f58	-0.008315884
128	0x3d28d18f	0.041215476
129	0xbc2a9c72	-0.010413276
130	0xbd36f28f	-0.044664916
131	0xbe8925fd	-0.26786795
132	0xbc6436a0	-0.013929039
133	0xbb9ee3e7	-0.0048489454
134	0xbeff8a89	-0.4991038
135	0xbe86b1ee	-0.26307625
136	0x3db7ef32	0.0898117
137	0xbd105633	-0.035238456
138	0xbd61614b	-0.055024426
139	0xbd81e5e9	-0.0634268
140	0xbb9a87ca	-0.0047158943
141	0x3c9ad85a	0.018901993
142	0x3d67b586	0.0565696
143	0x3d28ef49	0.041243825
144	0x3d08b1a7	0.033372547
145	0x3eb70a6a	0.35750133
146	0xbe36ac37	-0.17839132
147	0xbe3bc3bf	-0.1833639
148	0x3c21868f	0.009858741
149	0xbea0e6f6	-0.3142621
150	0xbec529e1	-0.38508514
151	0xbecb8093	-0.39746532
152	0xbf0a7e29	-0.54098755
153	0xbe0e6d0a	-0.13908783
154	0x3d180b3a	0.03712008
155	0x3da6c04a	0.08142145
156	0x3dbebec1	0.09313727
157	0x3ddd40e1	0.1080339
158	0x3d22e534	0.039769366
159	0xbe31d1ed	-0.17365237
160	0x3ccb0162	0.024780933
161	0xbc30da8c	-0.010794293
162	0x3d9a2f7f	0.075285904
163	0x3c87c0c3	0.016571408
164	0xbd5dcf1f	-0.054152604
165	0xbd026898	-0.03183803
166	0x3eae6a1a	0.34065324
167	0xbd1d16c8	-0.038351804
168	0x3c456926	0.012048995
169	0xbe18076e	-0.14846584
170	0xbdc5d4dd	-0.09659741
171	0xbe1537c3	-0.14572053
172	0xbddd01a2	-0.10791327
173	0x3d935229	0.07193405
174	0xbd2ecfe1	-0.042678718
175	0x3dc03ddb	0.09386798
176	0x3dd81c80	0.10552311
177	0xbdd1cb70	-0.10243881
178	0x3e6fca0b	0.23416917
179	0xbc8e0f18	-0.017341182
180	0x3d7da274	0.061922505
181	0xbc94dfb2	-0.018173072
182	0xbd73f439	-0.05955908
183	0xbe1bf31a	-0.15229455
184	0xbd42686e	-0.047462873
185	0xbe1abee9	-0.15111889
186	0xbe009690	-0.12557435
187	0x3d08d1d3	0.03340323
188	0x3e9d0f4c	0.30675733
189	0xbe025088	-0.12726033
190	0xbee47a41	-0.44624522
191	0xbf182840	-0.59436417
192	0x3b017abd	0.0019756996
193	0x3d44a4a3	0.048008572
194	0xbf4d02a9	-0.80082184
195	0xbe964143	-0.29346666
196	0xbd79863c	-0.06091903
197	0xbd784b6d	-0.060618807
198	0xbd517b0e	-0.051142745
199	0xbc0a3ebf	-0.008437811
200	0x3d737e70	0.059446752
201	0x3d49df87	0.049285438
202	0xbcc5f4e8	-0.024164632
203	0x3dca2716	0.09870736
204	0x3c33b211	0.010967747
205	0xbd45f5c0	-0.04833007
206	0x3e56dcd6	0.2098268
207	0x3d5f7c98	0.05456218
208	0x3c731e30	0.01483874
209	0x3c755b49	0.014975377
210	0x3d24f629	0.04027382
211	0xbe2228f2	-0.15835932
212	0xbdea7fb2	-0.11450137
213	0xbc6f0b9f	-0.014590173
214	0x3d8261f4	0.06366339
215	0x3ef4c7fc	0.47808826
216	0x3d889ca2	0.066705
217	0x3d9f7f06	0.077879
218	0xbda13b7c	-0.07872674
219	0x3c558eee	0.013034565
220	0x3b955ede	0.004558428
221	0x3c8b0e02	0.016974453
222	0xbdf9d8c5	-0.12199549
223	0xbddb9f8a	-0.10723789
224	0xbd7eb5bc	-0.062185034
225	0x3de77b1b	0.113027774
226	0x3cd83441	0.026392104
227	0x3d8799b9	0.06621117
228	0x3c2f7e67	0.010711289
229	0xbd58efcd	-0.052963067
230	0x3d2357fd	0.039878834
231	0x3e5498e4	0.20761448
232	0xbcedbaeb	-0.029019793
233	0xbd959a22	-0.07304789
234	0xbe5ceb90	-0.21574235
235	0xbe06df97	-0.1317123
236	0xbc62373d	-0.013807115
237	0xbcc7d348	-0.024392739
238	0xbcc64912	-0.024204765
239	0x3ca98feb	0.020698508
240	0x3cffa9be	0.03120887
241	0xbd308199	-0.043092344
242	0xbd66f1f1	-0.056383077
243	0xbe45893b	-0.1929063
244	0xbe7fc04b	-0.24975698
245	0xbe893dda	-0.26805001
246	0x3ce1f346	0.027581822
247	0x3c1d1196	0.009586712
248	0xbcd92b89	-0.026510017
249	0x3c3ced3a	0.011531169
250	0x3d6bfe66	0.05761566
251	0x3d337c86	0.043819927
252	0xbdd9c61a	-0.10633488
253	0xb9c86196	-0.0003821968
254	0xbc6ceb41	-0.014460386
255	0xbe07ed25	-0.13274057

fc2.bias f4 [10]
0	0xbdc8fd1d	-0.098139025
1	0xbe21b1ec	-0.15790528
2	0xbd5ed2d7	-0.05440029
3	0x3ed4b9ad	0.4154791
4	0xbc652520	-0.013985902
5	0xbc335bc1	-0.010947169
6	0xbe2fc385	-0.17164429
7	0x3c6fcbf8	0.014636032
8	0xbdc78db2	-0.09743823
9	0xbdf954f3	-0.12174406

conv3.weight f4 [64, 32, 5, 5]
0	0xbe680d3d	-0.226613
1	0xbe031833	-0.128022
2	0xbda891a6	-0.08230905
3	0xbdc6bbaf	-0.097037666
4	0xbe4b5a35	-0.1985863
5	0x3d887e1c	0.066646785
6	0x3c510b88	0.012759097
7	0x3dd40176	0.10351841
8	0x3e2cf519	0.16890372
9	0x3ea1247b	0.31473145
10	0xbee38b4b	-0.4444221
11	0xbe97ffe6	-0.29687423
12	0xbea3d709	-0.31999996
13	0xbd3d102d	-0.046158005
14	0x3eb836cc	0.35979307
15	0xbf4eae91	-0.8073512
16	0xbf41915c	-0.75612426
17	0xbf0cfb17	-0.5507063
18	0xbeb7bdc8	-0.3588698
19	0x3df8993f	0.121386044
20	0xbec55cf0	-0.38547468
21	0xbec8b390	-0.39199495
22	0xbedb0d35	-0.42783514
23	0xbe95208d	-0.29126397
24	0x3d1d74c1	0.038441423
25	0xbea9a467	-0.33133242
26	0xbe89d296	-0.26918477
27	0xbe9fafca	-0.31188804
28	0xbe0b31cf	-0.13593219
29	0xbd254ef5	-0.040358502
30	0xbeb833f3	-0.35977134
31	0xbe9f5b87	-0.31124517
32	0xbe8223aa	-0.25417835
33	0xbd78f632	-0.060781665
34	0xbcdc1d82	-0.02686954
35	0xbee31d89	-0.4435847
36	0xbe9c8a4a	-0.30574256
37	0xbe7dbb7c	-0.24778551
38	0xbd612e0e	-0.05497556
39	0x3dac0971	0.08400238
40	0xbec5b5c4	-0.3861524
41	0xbe6ffda9	-0.23436607
42	0xbe9f7bf0	-0.31149244
43	0xbc93bb1b	-0.018033555
44	0x3da17272	0.07883157
45	0xbec6a213	-0.38795528
46	0xbdbf8113	-0.09350791
47	0xbd77abac	-0.060466453
48	0x3e390f48	0.18072236
49	0x3dc5ddaa	0.0966142
50	0x3de4761e	0.111553416
51	0xbdd1ca2a	-0.10243638
52	0xbe0fe808	-0.14053357
53	0xbe7de5a9	-0.2479464
54	0xbe69adf4	-0.22820264
55	0x3def0a1e	0.116718516
56	0x3d9085eb	0.07056793
57	0x3e136046	0.14392194
58	0x3e19df5e	0.15026614
59	0x3e5061c8	0.203498
60	0x3c408a34	0.0117517
61	0x3d334abd	0.043772448
62	0x3e534b19	0.20634116
63	0x3e8192df	0.25307366
64	0x3e904c86	0.28183383
65	0xbe29b7d3	-0.1657403
66	0xbe7886fa	-0.2427024
67	0xbe15a487	-0.14613543
68	0x3bca3e58	0.0061719827
69	0x3c802613	0.015643155
70	0xbdad4194	-0.08459774
71	0xbe3fbd86	-0.18724641
72	0xbe3f37cf	-0.18673633
73	0x3ce3d8b6	0.027813297
74	0x3e4ac029	0.19799866
75	0xbe97f7f4	-0.2968136
76	0xbe45ee40	-0.19329166
77	0xbe0f8b6c	-0.14018029
78	0xbe262f80	-0.16229057
79	0xbe181281	-0.14850809
80	0xbed70083	-0.41992578
81	0xbeab8d7f	-0.3350639
82	0xbe1bf7ac	-0.15231198
83	0xbe0798d3	-0.13241892
84	0xbe2c6420	-0.1683507
85	0xbeba1f97	-0.36352226
86	0xbe512082	-0.20422557
87	0xbcbc901a	-0.023017932
88	0x3c7fa381	0.015602947
89	0x3d2ff5fa	0.04295919
90	0xbe8c0bdb	-0.27352795
91	0xbdf10b39	-0.11769719
92	0x3c419ae5	0.011816715
93	0xba3b869f	-0.0007153544
94	0xbcbfd87e	-0.023418661
95	0xbdef593e	-0.116869435
96	0xbdb70886	-0.089371726
97	0xbdb4dd22	-0.0883124
98	0xbdba1b74	-0.090872675
99	0xbdacbdbb	-0.08434626
100	0x3dee86d0	0.11646807
101	0xbdc09df9	-0.09405131
102	0xbd83d491	-0.06437028
103	0x3e3260ce	0.1741974
104	0x3f06536b	0.52471036
105	0xbd867ef7	-0.06567185
106	0xbe300301	-0.17188646
107	0x3dba4134	0.09094468
108	0x3efa37ff	0.48870847
109	0x3f46eb15	0.77702457
110	0x3ddb71ba	0.10715051
111	0xba56dbd7	-0.0008196211
112	0x3e062a2b	0.13102023
113	0x3e7a2dd2	0.24431542
114	0x3eaac2b9	0.33351687
115	0x3d6f3b20	0.058405995
116	0x3d16709e	0.036728494
117	0x3dcbb039	0.09945721
118	0x3e1a4577	0.15065561
119	0x3e738977	0.23782907
120	0xbddae668	-0.10688478
121	0xbdbd0b83	-0.09230711
122	0x3d9f9000	0.07791138
123	0xbddcfb08	-0.10790068
124	0xbde1d8f9	-0.110277124
125	0x3f0f2444	0.5591471
126	0x3e36dc02	0.17857364
127	0x3e2ae561	0.16689064
128	0x3e372ec8	0.1788894
129	0x3eb816dc	0.3595494
130	0x3f01f65e	0.5076655
131	0x3e0729bd	0.13199516
132	0x3e8a5ac2	0.27022368
133	0x3df9c8dc	0.12196514
134	0x3f049086	0.51783025
135	0x3ec754a0	0.3893175
136	0x3d4329ef	0.047647413
137	0xbd5decd4	-0.054180935
138	0x39d55800	0.0004069209
139	0x3e511fb5	0.20422252
140	0x3f4348f2	0.7628318
141	0x3e9a094f	0.30085227
142	0x3d9a13f5	0.07523338
143	0x3d33bac7	0.043879297
144	0x3e828ac2	0.2549649
145	0x3f01f49a	0.5076386
146	0x3e500c89	0.20317282
147	0xbd675d37	-0.05648538
148	0x3ca0ac0f	0.019613294
149	0xba6d0861	-0.0009042081
150	0xbd260b9d	-0.04053842
151	0x3e7a6fe9	0.24456753
152	0x3e4b2177	0.19836985
153	0x3d6bc5ba	0.057561614
154	0x3a9b16c5	0.0011832347
155	0xbdeb977d	-0.115035035
156	0xbad7c842	-0.001646288
157	0x3ea3a533	0.31961975
158	0x3daf7661	0.08567501
159	0xbd33058d	-0.043706466
160	0xbdc14d84	-0.09438613
161	0x3dbffde1	0.093745954
162	0x3ec07138	0.3758638
163	0x3ec7cdf8	0.3902433
164	0x3e4ce094	0.20007545
165	0xbe1fbc9d	-0.15599294
166	0x3e1fe5c5	0.15614994
167	0x3e868408	0.26272607
168	0x3eba1141	0.3634129
169	0x3ea3afc3	0.31970033
170	0x3e27d7f6	0.16390976
171	0x3ecf23b3	0.40456924
172	0x3e983701	0.29729465
173	0x3ebb7ebf	0.36620137
174	0x3e81ad18	0.25327373
175	0xbe1ad3a9	-0.15119804
176	0xbcc5c896	-0.024143498
177	0xbd88b9d6	-0.066760704
178	0xbddff2e4	-0.109349996
179	0x3dfb6a93	0.12276187
180	0xbe9adca6	-0.30246466
181	0xbd5bda1f	-0.053674813
182	0xbd7d2a94	-0.061808184
183	0x3d6e57ff	0.05818939
184	0x3e9bfcfa	0.30466443
185	0x3ca503a6	0.020143341
186	0x3dee3e55	0.11632983
187	0xbc3698fe	-0.011144875
188	0xbcabeeaf	-0.020987837
189	0xbe7d37df	-0.24728344
190	0x3e850824	0.25982773
191	0xbde09101	-0.10965157
192	0xbe1268d8	-0.14297807
193	0xbe625849	-0.2210399
194	0xbe408cb5	-0.18803675
195	0xbeb49ea7	-0.35277292
196	0xbe7688bc	-0.24075598
197	0xbe800e0b	-0.25010714
198	0xbe540e0e	-0.20708486
199	0xbdf5a9f2	-0.11995305
200	0xbf1b2714	-0.60606503
201	0xbf2de9d4	-0.6793492
202	0xbed1cb0d	-0.40975228
203	0xbe062a7c	-0.13102144
204	0x3d93a32a	0.072088555
205	0xbecb6272	-0.39723545
206	0xbe875199	-0.26429442
207	0xbde0df0a	-0.10980041
208	0x3b79cfd5	0.0038118262
209	0x3d474137	0.048646178
210	0x3d2bf77d	0.04198407
211	0x3deef909	0.116685934
212	0xbd1f8e80	-0.038954258
213	0x3bfba03d	0.007679014
214	0xbdb0b791	-0.086287625
215	0x3ea484e9	0.32132652
216	0x3ef55b1f	0.47921082
217	0x3eb16572	0.3464771
218	0x3e28dbb3	0.16490059
219	0x3dd1e238	0.10248226
220	0x3db9eb79	0.09078116
221	0x3eb7ae2f	0.3587508
222	0x3ede38b6	0.43402642
223	0x3e0a3548	0.13496888
224	0xbdcbfe8d	-0.09960661
225	0x3e910a85	0.28328338
226	0xbdf7677b	-0.12080284
227	0xbe66af0e	-0.22527716
228	0xbd1c86b5	-0.038214404
229	0x3e9615f7	0.29313633
230	0x3d0e3ba9	0.034724865
231	0xbd1687a2	-0.036750443
232	0xbd569d27	-0.052395966
233	0x3d346a6d	0.044046808
234	0x3e6e7719	0.2328762
235	0x3c909bc2	0.017652396
236	0xbe3e6f06	-0.1859704
237	0xbd8d1806	-0.06889348
238	0xbc5e0023	-0.013549837
239	0x3e32b2aa	0.17450967
240	0x3e1e0230	0.15430522
241	0xbe286427	-0.16444455
242	0xbe27da74	-0.16391927
243	0xbe109da4	-0.14122635
244	0x3c375818	0.011190437
245	0x3e49b077	0.19696222
246	0xbe97565d	-0.29558077
247	0xbe706db9	-0.23479356
248	0xbe096595	-0.13417657
249	0x3bd24037	0.0064163464
250	0xbdb22279	-0.086979814
251	0xbda355f6	-0.0797538
252	0xba5fe1f0	-0.0008540442
253	0xbe27db99	-0.16392364
254	0xbeaaf282	-0.33388144
255	0xbe19da29	-0.15024628

conv3.bias f4 [64]
0	0xbedcb646	-0.43107814
1	0x3d195a74	0.03743978
2	0xbdd6d54d	-0.10489903
3	0x3dbeb44f	0.09311735
4	0xbf243b0a	-0.64152586
5	0xbf6ed194	-0.9328854
6	0x3e13c88f	0.14431976
7	0xbf372fd2	-0.71557343
8	0xbf317284	-0.6931536
9	0xbf1b583b	-0.60681504
10	0xbdac0f97	-0.08401411
11	0xbd3feb5a	-0.046855308
12	0xbf32d8fa	-0.6986233
13	0xbee0b099	-0.43884733
14	0xbd6c6e20	-0.05772221
15	0xbea7d9db	-0.32783398
16	0x3ede4e53	0.43419132
17	0xbf2ba8b9	-0.67054325
18	0xbf4ba255	-0.79544574
19	0x3d82d7ee	0.063888416
20	0xbf003745	-0.50084335
21	0xbf895def	-1.0731791
22	0xbfab0086	-1.3359535
23	0xbf0da30c	-0.55326915
24	0xbd1d214e	-0.03836184
25	0xbec09b85	-0.37618652
26	0xbf886699	-1.065631
27	0x3c9e4fd5	0.019325176
28	0xbf8f4b16	-1.119479
29	0xbf060714	-0.5235455
30	0x3e1a147a	0.15046874
31	0x3e6eff72	0.23339632
32	0xbc6152ae	-0.0137526225
33	0xbde819a1	-0.11333013
34	0x3e6901cf	0.22754596
35	0xbcd8068e	-0.026370313
36	0xbedd5187	-0.43226263
37	0xbdbc4dd5	-0.09194533
38	0xbf078034	-0.5293
39	0xbe3718a1	-0.17880489
40	0x3d79ce3b	0.060987692
41	0xbe8575aa	-0.26066333
42	0xbef6332e	-0.48085922
43	0xbf6207da	-0.8829323
44	0xbe5183b1	-0.20460393
45	0xbe1a5fd2	-0.15075615
46	0x3db519bd	0.088428
47	0xbd916e3d	-0.071011044
48	0xbf6e172f	-0.93004125
49	0xbf100b87	-0.5626759
50	0xbe18cd7e	-0.14922139
51	0xbf1f0d19	-0.6212936
52	0xbee69f76	-0.45043534
53	0xbe5b90b1	-0.21441914
54	0xbe1a7596	-0.15083918
55	0xbec4d145	-0.3844091
56	0xbd0e41d7	-0.03473076
57	0xbf69ab8c	-0.91277385
58	0xbed9540c	-0.42446935
59	0xbf6597af	-0.89684576
60	0x3f278f58	0.654531
61	0x3ec5ac1b	0.3860787
62	0xbebb2c44	-0.3655721
63	0xbfa964bc	-1.3233867

bn3.weight f4 [64]
0	0x3f89f91c	1.0779147
1	0x3f45843b	0.7715489
2	0x3f9c0491	1.2188894
3	0x3fa93a65	1.3220946
4	0x3f8fa836	1.1223209
5	0x3f6179f4	0.8807671
6	0x3fdaecf6	1.7103565
7	0x3f2b2c80	0.66864777
8	0x3f8f6e7f	1.1205596
9	0x3f3ca119	0.73683316
10	0x3f9ca9a8	1.2239275
11	0x3f83ea03	1.030579
12	0x3f9a7741	1.2067643
13	0x3f56cdef	0.8390798
14	0x3f4c21eb	0.79739255
15	0x3f6743ea	0.90338004
16	0x3f8210c8	1.0161371
17	0x3f93807f	1.1523589
18	0x3f5d917e	0.8655013
19	0x3f98aa6e	1.1927011
20	0x3f6b4f5a	0.91917956
21	0x3f98a911	1.1926595
22	0x3fa59eff	1.2939147
23	0x3f8141dd	1.0098225
24	0x3f77056d	0.96492654
25	0x3f8fd9d4	1.1238351
26	0x3f98c6c1	1.1935655
27	0x3fb4596d	1.408979
28	0x3f61b003	0.881592
29	0x3f76390e	0.9618081
30	0x3f8f9ca7	1.1219682
31	0x3f68c147	0.9091992
32	0x3f312004	0.69189477
33	0x3f556bf7	0.83367866
34	0x3f877af5	1.0584399
35	0x3fa44500	1.2833557
36	0x3fba8e17	1.4574612
37	0x3f9b03b4	1.2110505
38	0x3fc1d405	1.5142828
39	0x3f8e397c	1.1111293
40	0x3f966010	1.1748066
41	0x3f541695	0.8284696
42	0x3f8c4f69	1.0961734
43	0x3f8ad5cb	1.0846494
44	0x3f83723b	1.0269235
45	0x3fa8278b	1.3137068
46	0x3f531529	0.8245416
47	0x3fb25eec	1.3935218
48	0x3fa0ac5e	1.2552602
49	0x3fc7a644	1.5597615
50	0x3f8647b0	1.0490627
51	0x3f936bad	1.1517235
52	0x3f630db6	0.88692796
53	0x3f87800a	1.058595
54	0x3f2740a6	0.6533302
55	0x3fa49a7d	1.2859646
56	0x3fa05242	1.2525103
57	0x3faa3719	1.3298064
58	0x3f944b47	1.1585473
59	0x3f8868bd	1.0656964
60	0x3f8b2401	1.0870363
61	0x3fa374a0	1.2769966
62	0x3f960fc9	1.1723567
63	0x3f9f4ee8	1.2445955

bn3.bias f4 [64]
0	0x3ed4e6fd	0.4158248
1	0x3cceb40c	0.025232337
2	0x3ecb5fc4	0.397215
3	0x3e004283	0.12525372
4	0xbea343d0	-0.31887674
5	0x3e8f01d6	0.27931088
6	0x3f2f05df	0.68368334
7	0x3c72e201	0.014824391
8	0x3bf2b710	0.0074070767
9	0xbd10180b	-0.03517918
10	0x3cee125e	0.029061493
11	0x3e8b732f	0.27236316
12	0x3e8abf0a	0.27098876
13	0x3cec54b6	0.028848987
14	0x3dffc0db	0.12487956
15	0x3caa5a7d	0.020795101
16	0x3e54bca0	0.2077508
17	0x3e6554bc	0.22395605
18	0x3e83a381	0.2571068
19	0x3ef997dc	0.48748672
20	0x3e1574a9	0.14595284
21	0xbd87a81f	-0.066238634
22	0x3ea11d7a	0.314678
23	0xbe3eb899	-0.18625106
24	0x3dcef534	0.101053625
25	0xbb1a3f14	-0.0023536133
26	0x3e115690	0.14193177
27	0x3e2e38c9	0.1701385
28	0xbe0e554f	-0.1389973
29	0x3ea8a9c5	0.32942024
30	0x3d553db8	0.052060813
31	0x3e0e2eea	0.13885084
32	0xbcb285d6	-0.021792334
33	0xba8124a6	-0.0009852841
34	0x3e0db436	0.13838276
35	0x3d876df4	0.06612769
36	0x3f09d050	0.53833485
37	0x3f205e3d	0.62643796
38	0x3e44bf9f	0.19213723
39	0xbe9310fd	-0.287239
40	0x3e896dfd	0.26841727
41	0x3e33d5f7	0.1756209
42	0x3f4a1b1b	0.7894761
43	0xbcc27b6e	-0.023740496
44	0xbd1aba04	-0.037775055
45	0x3e98b0d1	0.298224
46	0x3d83a2a8	0.064275086
47	0x3e7842f0	0.24244285
48	0x3ec41f0b	0.38304934
49	0x3d9c9637	0.07645839
50	0x3dda34e9	0.10654623
51	0x3e9f6fad	0.3113989
52	0x3f15f728	0.58580256
53	0x3d8b2648	0.06794411
54	0x3d86c9e6	0.06581478
55	0x3e83ba80	0.25728226
56	0x3e76c8b3	0.24099998
57	0x3ed07d40	0.40720558
58	0x3e873548	0.26407838
59	0x3db33b1f	0.08751511
60	0x3e9f4fac	0.31115472
61	0x3e428a21	0.18998004
62	0x3cebbc30	0.028776258
63	0x3ea65342	0.32485396
